mnist_classifier.pth (torch, 439447 bytes, 6 tensors)

layer1.weight f4 [128, 784]
00000000: dc9f 853c e887 1b3c 89b5 d33a 4123 803c
00000010: 8578 1a3d 05d1 60bb f25b 86bc 0363 ba3c
00000020: 04b5 013c 6281 913c f535 223c c968 a4bc
00000030: c457 1d3d 8ba9 a53b cced 95bc 3124 1f3d
00000040: 66e8 ad3b b62f d6bb f87e 033d 7722 cbbc
00000050: fe76 223b 34ec 81ba c821 693c 6023 5ebc
00000060: 03b8 113d 0fe1 75bc e356 e33c fc5e 293d
00000070: a7ad b93b 006a 87bc fc02 fa3c a250 923c
00000080: 5963 00bc 8ffb f5bb 8c26 243d cbb8 1e3d
00000090: 506b 133d 1f11 dabc df50 cb3c 7b8c bcbb
000000a0: 81f5 863c 1a22 d73c 9bb7 5a3c 9b58 8f3c
000000b0: 9319 d1bc c377 bdbc 6762 bebc da77 be3c
000000c0: 49a6 85bc 3a34 ea3c d1c2 1d3c c317 b83c
000000d0: 4994 cabc 7099 00bc b34d edbc 5482 903b
000000e0: 4a8a 233d 7e79 203d 5a34 f0bc d910 0f3d
000000f0: ac67 d73c cc96 b7bc ff3a 1d3c 4acf f73c
00000100: b100 cdbc ec02 0d3d 5190 4ebc 05f5 923c
00000110: 7ae7 fc3c 9b69 66bc 07fd d5bc 344d 0f3d
00000120: c84d 323c 6805 6bbc bcef c4bb e9d7 b7bc
00000130: b248 a4bc aa84 5ebc 1710 023d aa76 c83c
00000140: 6165 ddbc 4579 0d3d 0349 013d ff1d 133d
00000150: c813 bc3c b774 8e3c 6797 2bbc 905e 8c3c
00000160: 9ff8 113c 0fdb d5bc e46d 253d c970 723c
00000170: c51c 993c 0110 dbbc cf36 153d fef8 dbbb
00000180: 908f 5f3b a8dc d73b 7a76 393c 018f b0bc
00000190: fd43 e53c de78 dcbc d429 233d 4714 b8bb
000001a0: 4e21 033c 9eee 6abc 8b80 aa3b 8a97 dd3c
000001b0: e614 a43c 1579 87bc 005f b8bc fd4e 8f3c
000001c0: 2f55 f83c 7b9b 7c3c c5fd 7e3b 6401 6bbb
000001d0: b295 753b 37aa 993c a46b 5a3c ef51 2dbc
000001e0: e9a4 283b 79b6 ddbc f886 113d be46 193c
000001f0: a170 acbc a5b3 543c 1038 7f3c 0672 53bc
00000200: 3417 d7bc a293 a3bc afdb a03c 2558 e13c
00000210: e90d efbc 7111 99bc 4eeb c4bb 294e c2bc
00000220: 3e54 c2bc d313 e93c ac70 ad3c 79c1 ccbc
00000230: 29e3 b0bc cf1a ad3c 0277 1cbc 8f34 2bbc
00000240: a4cb 3abc c5cf 70bc 0265 853c aed6 1c3c
00000250: dc4c 7cbc 6469 a73c 60e3 0c3b af03 fd3a
00000260: 9bcc a8bc 630c e93a 07c5 e33c 353a 153d
00000270: 2ac9 6b3a 8dbb a53b 58f3 df3c becf e3bc
00000280: a29b f03c fdaa bb3c a44c de3c 3dba 1a3d
00000290: 9834 943c ce30 98bb 8303 bc3b d7ed bcbc
000002a0: adf4 eabc 712f dc3b 3f3a 453c 50a4 933c
000002b0: bb98 973c b8b6 d13c 0fff 063d 4438 2c3c
000002c0: 8062 a43c 1088 923c 68f9 103d 1d64 913b
000002d0: b78d c7bc fa34 cfbc 17b6 89bb 02e8 06bc
000002e0: 25d5 1fbc fb33 1739 0de3 5fba 0458 1f3d
000002f0: 3f5a 863a 2c56 7bbb 0dce b63c 5ae1 c43c
00000300: 45b7 f0bc cb23 d1bc 6106 62bb e55e babc
00000310: 42eb ab3b 8a03 bd3c 6aa2 283d d196 103d
00000320: f8c0 9e3c aea3 bbbc b3cd 8d3c 54bd 2d3d
00000330: c9bf ef3c 4ba2 9bbc e609 a63c 11a7 233c
00000340: 005a 6dbb 2696 97bc 8575 c9bb 2656 3abc
00000350: 98e6 c5bc 2acc 16bd ed77 63bc b277 9bbb
00000360: 6e21 143b 7155 973c f28f c43b 6893 f63c
00000370: 290d df3c d11e a93a b99b 873c 73a8 d0bc
00000380: 11a1 da3c b409 1b3d 5db3 5e3a 6019 873a
00000390: b539 2d3b dd46 973c 690a b7bc 4129 003d
000003a0: 05de a5bc 9fa6 8cbc b877 3b3b 808d 6e3b
000003b0: c597 273d 71e8 d83c 60fd 543b 18f2 f73b
000003c0: 6cab 643c 5906 e13b 7952 f53c 3b7f 8bbc
000003d0: 0532 ebbc f840 fb3c 05ef 9cbc 7165 ccbb
000003e0: d1ee 39bc f62f 363c cde6 733c 1029 8dbc
000003f0: eac8 1139 fd46 013d 90df 273c 215b 1d3b
0.016311578 0.009492852 0.0016152124 0.01564181 0.037712593 -0.0034304273 -0.016401265 0.02275229
0.007916693 0.01776189 0.00990056 -0.020069497 0.038413778 0.0050556115 -0.018301867 0.038852874
0.005307245 -0.0065364493 0.03210351 -0.024796708 0.0024790163 -0.0009912313 0.0142292455 -0.013558239
0.035575878 -0.015007271 0.027751392 0.04135035 0.005666453 -0.016530037 0.030519001 0.017860714
-0.007836186 -0.0075067948 0.040075824 0.03875045 0.035991013 -0.026619492 0.024818836 -0.0057540513
0.016474487 0.026261378 0.013349439 0.017498305 -0.02552489 -0.023128396 -0.023240281 0.023250509
-0.016314643 0.028589357 0.009628967 0.022472268 -0.024728911 -0.007849082 -0.028967714 0.0044100676
0.039926805 0.039178364 -0.029321838 0.034928177 0.026294552 -0.022410773 0.009596585 0.03025021
-0.025024744 0.034426615 -0.01260765 0.0179391 0.030872095 -0.014063264 -0.02612163 0.034985736
0.010882802 -0.014344551 -0.006010024 -0.022441821 -0.020054195 -0.013581434 0.031753626 0.024470646
-0.02702588 0.03453948 0.03156377 0.03591728 0.022958651 0.017389638 -0.010473109 0.017134935
0.008909374 -0.026105432 0.040388003 0.014797398 0.018690476 -0.02674103 0.036429223 -0.006713032
0.003411267 0.0065875836 0.011319751 -0.021552565 0.02798652 -0.026913103 0.039834812 -0.0056176516
0.008003546 -0.014339117 0.005203312 0.027049799 0.020029496 -0.016537229 -0.022506237 0.01749372
0.030314056 0.015417929 0.0038908583 -0.0035858983 0.0037473259 0.018757923 0.013331328 -0.0105786165
0.002573306 -0.027064549 0.035529107 0.009355245 -0.0210498 0.012982284 0.015577331 -0.012905603
-0.026256181 -0.019967858 0.019636003 0.02750785 -0.029181438 -0.018685075 -0.006009496 -0.02371891
-0.02372181 0.028451836 0.02117189 -0.024994599 -0.021592693 0.021130947 -0.009549858 -0.010449543
-0.011401091 -0.014697974 0.016283516 0.009572668 -0.015399184 0.020435996 0.002149783 0.0019303466
-0.020605376 0.0017780181 0.02780391 0.036432464 0.00089945144 0.005057758 0.027337715 -0.02780902
0.029371087 0.022908682 0.027136154 0.037775267 0.018091485 -0.00464449 0.0057377233 -0.02306263
-0.028681124 0.0067195226 0.012037813 0.018022686 0.018505445 0.025599822 0.032958087 0.010511462
0.0200665 0.017887145 0.035394102 0.0044369833 -0.024359567 -0.025293816 -0.004202615 -0.008234026
-0.009755407 0.00014419846 -0.0008540608 0.038902298 0.0010250284 -0.0038350923 0.02231505 0.024033237
-0.029384265 -0.025529763 -0.0034488665 -0.022750327 0.005246551 0.023072977 0.041170515 0.03530008
0.019379124 -0.022905197 0.01731 0.042416885 0.029266255 -0.018998286 0.020268392 0.009988562
-0.0036216974 -0.018504214 -0.0061480426 -0.011373078 -0.024157807 -0.0368158 -0.013883573 -0.0047444934
0.0022602933 0.018473359 0.005998605 0.030099586 0.027227955 0.0012902861 0.016553747 -0.025470948
0.02668813 0.03785105 0.0008495355 0.0010307245 0.00264321 0.018466407 -0.022343831 0.031289343
-0.020247469 -0.017169295 0.0028605293 0.0036400259 0.040916223 0.026478024 0.0032499656 0.0075667016
0.013956886 0.006867212 0.029946553 -0.017028442 -0.028710375 0.030670628 -0.019156942 -0.0062376787
-0.011348442 0.011119833 0.01488657 -0.017231494 0.00013903124 0.03156184 0.010246173 0.0024010616

layer1.bias f4 [128]
00000000: 7421 27bd ddd2 31bd 7d52 123d a29f 703c
00000010: 80e7 a93c 25e7 2e3c 5da8 0cbe 7757 2e3b
00000020: f35b 34bc ccde f0bc 7939 cdbd bb95 bbbb
00000030: 996a 43bc dd7f 4e3d eed0 4ebd 1926 b7bd
00000040: 2c29 9cbc 9b0a 16bd 136a cebc b69c 4cbd
00000050: 1667 16bd 1c23 7f3c da2b e93b 3265 babd
00000060: 4d7a 86bb d7eb a93c 3b06 e33c 9ef5 d83c
00000070: d34f c0bd 478d c43c 7e99 983b f329 babd
00000080: 5724 13bd b9b5 263c 88b5 6a3c a315 07bd
00000090: e6ed a3bc dfe5 4d3d 656e 81bd 2f37 dc3a
000000a0: 5595 91bd 925d 10bd 6a0b 14bc 1af2 debc
000000b0: 5e89 0fbd c6d0 25bd 8ce8 d53a 9ad6 babb
000000c0: d60e 573b 4f3a e1bc 46fe 453d 363a 04bd
000000d0: f9be adbc a6f5 303c 1664 df3a a1a0 e3bd
000000e0: 870e 2cbb 7f38 b13c 0a5f bebc 3c27 c5bc
000000f0: ad85 f1bc 3fa5 f63b 10d2 083c 0976 f83c
00000100: 921e aabd 8039 50bc 4e08 d33b 0e7b 16bc
00000110: 185c 593d be07 11bd 0f99 463d a7e9 43bc
00000120: c32b 19bd 6d43 ae3d e451 99bd 55ff 543c
00000130: 96c0 4bbd e18f 75bc 221b 98bd 7816 c9bb
00000140: 0299 34bd 08c6 8cbd 54a0 00bc cc85 de3b
00000150: 3073 16bd 630a 043d 52b9 a53c add1 96bc
00000160: abf3 c13d 5f8b c03c f9f2 dc3c 0101 9cbd
00000170: 00c3 85bd 5117 8abd 4ff2 fbbb bd44 e23b
00000180: 0a71 843c f9de e3bc ffd9 d9bc f468 043d
00000190: 0aa8 053d 3e57 a73c f445 eb3c 7526 303c
000001a0: 0e6e aebd 3a00 173c c60e b3bd c55a 983c
000001b0: 7b29 a9bc 791e 9abb 3d70 27bc d282 533b
000001c0: 6af9 41bd 6efc 71bd 4fcc 393c 7f45 133c
000001d0: 1160 5e3d 8e4c 06bd 08b4 5dbc 9a2a 8b3b
000001e0: 6ae7 4dbd 036e 58bc d30a f63c 9374 8f3b
000001f0: edca 35bd 7caf d23b 3b64 87bd e3c1 c23b
-0.040803388 -0.043413986 0.0357232 0.014686497 0.02074027 0.010675226 -0.137361 0.0026602426
-0.0110082505 -0.029403113 -0.10020728 -0.0057246364 -0.01192727 0.05041491 -0.05049222 -0.089428134
-0.019062601 -0.036631208 -0.025197065 -0.04995414 -0.036719404 0.015572336 0.007115823 -0.09101333
-0.004103935 0.02074234 0.027712932 0.026484307 -0.09390225 0.023993148 0.0046569696 -0.090900324
-0.03592333 0.010175162 0.014325507 -0.03297962 -0.0200109 0.05026805 -0.06319884 0.0016801114
-0.07108561 -0.035245486 -0.009035924 -0.027215052 -0.035043113 -0.040482305 0.0016319915 -0.005701852
0.003281524 -0.027493624 0.048338197 -0.032282077 -0.021209227 0.010800755 0.0017043378 -0.11114622
-0.0026253776 0.021633385 -0.023238678 -0.02406656 -0.029482687 0.007527023 0.008350864 0.030329721
-0.08306612 -0.012709022 0.006440199 -0.009184612 0.053066343 -0.035407774 0.04848581 -0.0119575625
-0.03739525 0.08508954 -0.074863225 0.013000329 -0.04974421 -0.014987917 -0.0742705 -0.0061367117
-0.044091232 -0.06873709 -0.007850725 0.006790852 -0.036730945 0.032236468 0.02022997 -0.018410528
0.09470304 0.023503957 0.026971327 -0.07617379 -0.06531334 -0.067427285 -0.0076887975 0.006905167
0.016167182 -0.027816283 -0.026593206 0.032326654 0.032630958 0.020427343 0.02871988 0.010751356
-0.08517085 0.009216363 -0.08743052 0.01859797 -0.020649662 -0.0047033397 -0.010219631 0.003227402
-0.047357 -0.059078626 0.011340215 0.008988737 0.054290835 -0.032787852 -0.013531692 0.004247022
-0.05026952 -0.013209823 0.030034458 0.0043779104 -0.04438298 0.006429611 -0.06610914 0.0059435233

layer2.weight f4 [64, 128]
00000000: a36e f83c fe4b d43e 5c4d 923a 4178 34bd
00000010: 0eaa efbc 183b 883d 61d5 d03d 1eec 813e
00000020: d90d 06bc 5021 8ebe ffed 953d 676d 65bd
00000030: 812b d7be ed71 0bbe 4cd1 f23d fc3c 99bd
00000040: c3a5 37bf dd89 dc3a 997d 85bd c21b 6cbe
00000050: 6adc 473d 1067 c13d 186a afbd 8a17 b53d
00000060: cab2 aebc 5d81 95bd 07ab 4b3d 71d2 403e
00000070: b03b 35be 1fbc 013d 6e98 063f 6a3f 023f
00000080: 319c 1bbe 80e4 2abd 07f8 63bd 4920 97bc
00000090: fc61 713d 7c55 afbe 5aac 863e 2d51 2c3e
000000a0: 0b97 0e3e efbc ef3d eeee 723d c574 943e
000000b0: 0713 5cbd 143f 113d 0a66 fbbc ed8b 423d
000000c0: c7c1 17be a13b 84bd b70f 8d3e 071c 003b
000000d0: caa9 b13d 28d3 5ebd 8568 963c 4285 883e
000000e0: 9569 7c3d 22f3 f8bc 9b1e 0dbe 284d 673d
000000f0: f9db 9d3e c49e 513e fefe 473d b40c f03b
00000100: 2510 d23e 6b50 3c3e bb4c 6f3d b92e a43e
00000110: b5cc 53be 2dcc 743e 0013 f93d b811 90bc
00000120: cc64 8bbd 7f22 8dbe f8ff 33be df0d 133d
00000130: 4256 803e be77 f6bd 553e 2f3e a034 333d
00000140: c37e 683d f988 8c3d 3bb7 f63b f45f 0fbf
00000150: 99f0 5eba 39dd d03d d2ba 8a3d 2efe 6abd
00000160: 250a 873e 0ea4 c53b e634 a5bd f27d 4cbe
00000170: 190b 253a df22 aa3e 5f68 493d c738 acbd
00000180: 0d2a 73bc 2bf7 983e a7e1 053d 64bb 503d
00000190: c2e3 4cbe f222 783d 82b0 f6bc ff23 7a3d
000001a0: f482 273e dc71 20bc 4c19 573e cf09 22be
000001b0: e8f4 2ebe 0c80 e63d cfb5 39bd 48a2 9dbd
000001c0: d91b cebd 5b34 dabe 681b 8ebd 2624 843d
000001d0: 66e6 94be 5f11 d13d b447 23bd fbe3 903d
000001e0: b284 953e c31d efbc 11de c33e 180a 173e
000001f0: 4f06 4fbc 3d13 e43c d89e 293c 24be ac3d
00000200: d1f5 e43c 4b78 c8be cfca 04be 85dd 9bbd
00000210: fe0c a63b 9700 13bc 5576 ddbe bc23 d53d
00000220: ddbc 8fbd 2c42 993e 87b4 183d e0f7 66bd
00000230: e319 5f3e 33e5 8bbe 27c9 9d3e 9a9b 11bf
00000240: 503d 55be 76f2 61bc 228b 7cbd 20a2 53be
00000250: 1aac afbc 54b4 66bc b266 42bd 9d09 04be
00000260: b108 83be 309e b23d 84ce 17bc c328 853e
00000270: 537d c33c 676d 28bd 4f31 413e 6f2e b1be
00000280: 8bcc 4d3c dbba a33b 5ee3 173d 089a 603c
00000290: e04b c0bd 7baf 2e3e 85e7 8abe 85b2 283e
000002a0: a2e1 c5bd 90a3 a7bd 6dec 93bd db66 273e
000002b0: fffa 72bc bac3 813d 20cd a5bd 2ca7 8c3c
000002c0: 4545 373d a396 00bd 31f0 9c3d 5654 cd3a
000002d0: 342a ef3c 6ac9 b43c 7c07 d6bc 43b9 c3be
000002e0: 4690 06bc 710e 16b9 b4d5 e1bc fc09 3fbd
000002f0: 1b4d 80bd 7fea 003e 3409 fd3c 68c1 d13c
00000300: 3b69 983d d905 1fbd 4fda b4bd 7694 eebd
00000310: 0c5f 433e 3568 e33d 5d79 51bc 62ec 273c
00000320: b4ba d1bc eede 49bd 7c49 c53e e32f a7bc
00000330: 6feb d63e 3568 fcbe 83c0 93bf 7883 e5bc
00000340: 40da 5abf e3fb 3fbe 7967 45bd 979c d5bd
00000350: bbab 52bd a286 843e 6a51 d93c 6aac c5bb
00000360: be26 833e ea4b 24bd 21de 4fbd 49fe 94bd
00000370: 8818 8bbe b58c 67be 0cf1 86bd acdb 443d
00000380: 03db 213d 7ffa e3bd 2e63 c43c b72f 923d
00000390: cd9b 02be 1c85 893d 311a a83d 3377 813c
000003a0: f5fc 6b3e 5f7c a0bd 0e2f 96be 1551 083f
000003b0: 789f 1dbf 63fb 0b3d 8f72 86bd db99 8ebd
000003c0: 36c4 cbbe b13f 3d3e 2363 203d a64b 84bd
000003d0: 7a8b 853e 1fec 253e 620a 693d f575 b73e
000003e0: ca3d 69be e541 613e 8dbd 72be 1e00 0d3e
000003f0: be55 b73e c20d 783d a50d 75be 96c1 a43d
0.030326193 0.41464227 0.0011161971 -0.044059996 -0.029255893 0.06651896 0.10196949 0.25375456
-0.0081820125 -0.2775979 0.07320785 -0.056012537 -0.42025378 -0.13617678 0.118563265 -0.07482335
-0.7173731 0.0016825754 -0.065180965 -0.23057464 0.048794188 0.09443486 -0.08565158 0.0884238
-0.021325488 -0.07300065 0.04972365 0.18830277 -0.1769855 0.031673547 0.5257634 0.5087801
-0.15196301 -0.04172182 -0.05565646 -0.018448012 0.058931336 -0.34244907 0.2630337 0.16827841
0.13924806 0.11705958 0.059309892 0.28995338 -0.053729083 0.035460547 -0.030688304 0.047496725
-0.14820014 -0.06456686 0.27551052 0.0019547956 0.08674963 -0.054400593 0.018360386 0.26664168
0.06162413 -0.030389372 -0.13781206 0.056470066 0.30831888 0.2047072 0.048827164 0.007325733
0.41027942 0.18390052 0.058422785 0.32066897 -0.20683558 0.23906012 0.12161827 -0.017586574
-0.06806335 -0.2756538 -0.17578113 0.0359019 0.2506581 -0.12034558 0.17113622 0.04375136
0.056761514 0.06862063 0.007529167 -0.5600579 -0.000850448 0.10198445 0.067739144 -0.05737131
0.26374927 0.0060315197 -0.0806673 -0.1996992 0.0006295904 0.3322973 0.0491718 -0.08409267
-0.014841569 0.29876074 0.032685902 0.05095996 -0.20008758 0.0605802 -0.030113462 0.061069485
0.16358548 -0.009792771 0.21005744 -0.15824054 -0.17085612 0.11254892 -0.0453394 -0.07696968
-0.10063905 -0.4261807 -0.06938821 0.06452207 -0.2908203 0.102083914 -0.039863303 0.07074734
0.292028 -0.029188996 0.3825536 0.14749944 -0.012635781 0.027841205 0.010352813 0.08434704
0.027949246 -0.39154276 -0.1296799 -0.07610611 0.0050674668 -0.008972309 -0.43254343 0.104072064
-0.07018445 0.29933298 0.03728154 -0.056388736 0.21787219 -0.27323303 0.3081753 -0.56878054
-0.2082417 -0.013790717 -0.061656125 -0.20667315 -0.02144437 -0.0140810795 -0.04746122 -0.12894292
-0.2559257 0.08721578 -0.009265546 0.2600766 0.02386347 -0.04111996 0.18866466 -0.3460574
0.012560974 0.00499664 0.03708207 0.013708599 -0.09389472 0.17059128 -0.2712976 0.1647435
-0.09662177 -0.08185494 -0.07222829 0.1634783 -0.01483035 0.0633616 -0.08095765 0.017169558
0.044743795 -0.03139366 0.076630004 0.0015665393 0.029194929 0.022068698 -0.026126616 -0.3822728
-0.008213108 -0.00014310495 -0.027567722 -0.04664038 -0.06264707 0.12589453 0.030888177 0.025604919
0.07441946 -0.038823936 -0.088307016 -0.116494104 0.19079226 0.1110386 -0.012785283 0.010249229
-0.025601722 -0.049284868 0.38532627 -0.020408576 0.41976497 -0.49298254 -1.1543125 -0.02801679
-0.85489273 -0.18748431 -0.048194382 -0.10430258 -0.051433306 0.25883967 0.026528079 -0.0060325162
0.25615495 -0.04011146 -0.050748948 -0.072750635 -0.27167153 -0.22612269 -0.06588945 0.048061058
0.039515506 -0.11131763 0.023973074 0.07138007 -0.12754746 0.06714842 0.082081206 0.015803909
0.23045714 -0.07836222 -0.29332775 0.5324872 -0.61571455 0.034175288 -0.06564819 -0.06962939
-0.39798135 0.18481328 0.039157044 -0.06459741 0.26082975 0.16203354 0.056894667 0.35832182
-0.22777477 0.21997793 -0.2370512 0.13769576 0.35807604 0.060559995 -0.23930986 0.08044736

layer2.bias f4 [64]
00000000: 8fee 76bf 60cd 543f 47e2 ce3e e488 843e
00000010: 98ef e6be be40 a4be bbd5 b0bc 7718 64be
00000020: 0b55 bc3e 0203 c93e 248a aabe de70 99be
00000030: 6226 063f 1045 083f c8d8 e23e 344c 75be
00000040: cdad 77be 77a5 afbc cea9 79be a1c7 b0be
00000050: 4c93 8ebe b9a1 0dbf a0a0 203d 39a3 33bf
00000060: feb5 12be a54a dc3d b72b 013e 1d48 88be
00000070: d6c8 bbbc 62cb a0bc f6a2 2ebf f02f dabe
00000080: 4e34 41bf 0055 b4be 6af5 083c 656e 85be
00000090: 7f98 dd3e 81c1 28be 9075 243d d440 d93e
000000a0: 6794 29be a7ba e4be ceca cf3e 1959 90be
000000b0: 9a16 3d3c fc42 f3be 73c6 74be 0d98 a7be
000000c0: 91e0 86bd 10b3 7f3d e643 b6bd ee69 cb3e
000000d0: 01b9 dbbd 385f e8be 7fcf c3be cdae d9be
000000e0: 80dc f03d 99aa 8dbe c909 4cbd 1607 eebd
000000f0: e12b 083f a861 633e c007 aa3d d6f6 c9be
-0.9645776 0.8312588 0.4040701 0.2588569 -0.4510467 -0.32080644 -0.02158629 -0.22274958
0.36783633 0.39260107 -0.33308518 -0.29968923 0.5240232 0.5323038 0.44306016 -0.2395485
-0.24187393 -0.021441204 -0.24381182 -0.34527305 -0.27846754 -0.55324894 0.039215684 -0.70170933
-0.14327237 0.10756425 0.12614332 -0.26617518 -0.022922914 -0.01962823 -0.6821741 -0.42614698
-0.75470436 -0.352211 0.0083592925 -0.26060787 0.43280408 -0.16480066 0.04015118 0.42432272
-0.16560517 -0.44673654 0.40584415 -0.28192976 0.011541033 -0.47512043 -0.23903827 -0.32733193
-0.065858014 0.062426627 -0.08899669 0.39729255 -0.10728646 -0.45385146 -0.38244244 -0.42516175
0.11760807 -0.27669218 -0.04981402 -0.11622445 0.53191954 0.22205222 0.083022594 -0.39446133

layer3.weight f4 [10, 64]
00000000: b279 303d 3536 433e b72f e7be 89f2 92be
00000010: 4670 db3e d3fd 8fbd c9f7 ea3d 095f ae3b
00000020: 6f41 13be 4f2b 47bf 7c4b 9bbe 0a71 aabe
00000030: 5525 23be c7e2 0ebe 9574 31be 2b09 fdbe
00000040: 553f 9dbe 6e9b 80bc 3908 56be 29c8 70bf
00000050: 3c97 27be e70b eebd c75d 8bbe 93e2 f6bd
00000060: c403 65bd 3741 7d3e 4bbb 38be f69e abbe
00000070: 643b a6be 85e3 e83d a698 2cbf 8eaa 5f3e
00000080: cd57 b9be 10f3 793e 53f5 69bc 4bb0 df3c
00000090: 142e 01bf d0b8 e2bc 7ebb b73b beee 1e3e
000000a0: 4c1e c33d 4055 b4be 1941 a83d efde 25bf
000000b0: 73b0 433e dcfb 093e 5e80 643d 4079 babe
000000c0: bdcb f8be 9d9a 9d3e 56a8 343e 7a40 aebc
000000d0: 159c 66be c49c 75be 50f2 2fbe 3084 f6be
000000e0: 26de b1be 8e80 21be 8574 a63d d51f 3a3d
000000f0: 30c6 553e bb69 38bc 972e 483e aa4a 493e
00000100: 286a fa3d 8248 debe 3c14 f8bc 2ec8 343d
00000110: c5a7 34bf c844 1abf 64b4 27bf 0847 d5be
00000120: 2159 5dbd e68d 413e 5866 813d 07c5 9ebe
00000130: 0dda fd3d 0366 483e 6d87 cebc b353 3ebc
00000140: 76df a33c 44b3 b4bb 9e0b 933e 6e07 98bd
00000150: 48fa 7c3d b5c6 0ebd b05c 183e 3285 393d
00000160: 7257 09be a3cf 9fbe 6e88 5ebe 522b 9abe
00000170: c29a ecbc aeae ce3d 5671 323e e460 1c3e
00000180: a59a 8c3e 07cd 0fbf 6e04 6a3e de6a 17bf
00000190: 1d53 e6be d15e 71be 6d6d a1bd a5cc 02bf
000001a0: 5e92 61be 9f2a ed3c e6f0 75be 9bf1 38bd
000001b0: f88d 39bc 1b2e 763e fc04 babd 268d 0abd
000001c0: e025 4bbe c7a8 4fbe a332 babd 720a d3bd
000001d0: 84b7 413e 23ea a4bf 5604 bdbe b20c c93c
000001e0: dab5 b4bc f232 0c3e 062c 7fbd c2c2 1dbe
000001f0: eb8a f9be 8601 98be ab8f 8ebe 442a 6c3e
00000200: df8e 943d a766 aebd a10e 9e3d 0049 a93d
00000210: 001c 343e 4454 87bd cbf0 2ebf 4aa4 4abf
00000220: 1d7a 063d 9df6 b5bd 6ab9 84bd 3021 64bd
00000230: 2849 19be f51f a03b a1d9 8dbe 56a7 d93d
00000240: a983 ecbe 985d 5e3c a283 b9be 5c48 0b3e
00000250: 74f6 a6be 0a67 12be 375e 093d 9f70 80be
00000260: 3f98 29be e514 ca3d 8156 d8be 8034 81bc
00000270: 7f55 253e 29da f6bc 5699 7a3e fc9d 6b3d
00000280: b05c 19bb 1ccf 7abe b1a0 3f3b aeeb 3fbf
00000290: cdcd 963c 0b8b 553d 84c7 1dbd 3169 c0be
000002a0: 1991 f4bb 3f4a ab3c 9839 3dbd c154 81be
000002b0: cdaa 163d 496c 5b3d fce7 1b3e 1de8 703e
000002c0: 4716 303e 5dd6 b63d bd8c bdbc a1e7 103e
000002d0: 3b45 413d 061f 7b3e 1ee4 fd3d 61ce 343d
000002e0: ca5a 81be e135 173e 87f8 de3c cd36 04bc
000002f0: 88bc 60be 7f0a 66bc 8847 763d 3680 e8be
00000300: bfa5 b03d 0f90 1a3e 2d0c c9be f8b4 a6bc
00000310: b412 5dbe 30d5 8abe d508 33be 463a 30bf
00000320: a72d b3bd e76e 8fbe 2df5 ac3c 303c b2bc
00000330: 94de 163e 1009 7cbe d552 a83d 9fd4 573e
00000340: 620a a2be 73f4 fabb 5994 56bd 9687 2abf
00000350: e504 233e d4a1 2c3e e13f 0e3e 39ef 2d3e
00000360: c29e afbd 731e 1f3d d632 92be e7c0 b3bd
00000370: d291 0abf c064 e93e 5086 7f3d c1bb b93d
00000380: c1c6 7ebe 9c6a c6be f080 04be e24e 72bd
00000390: 29cc 5d3d 4e1d 4ebe 1dbc 32be abda b03d
000003a0: 7281 003e 641d a7be b86b 00be 29ed ca3d
000003b0: 9b35 dbbe d353 eebe 0bb1 86bd 9090 a13d
000003c0: be99 333e 0e97 d8bd 1dc9 e5be dde9 053e
000003d0: fd74 263e 10ee fcbe e8de b4bd e095 7c3e
000003e0: 2958 17be d688 eabe d01f 3fbd 5951 1dbd
000003f0: 4694 09be 02e1 bfbc 1b96 0fbe e456 8ebe
0.043084808 0.19063647 -0.4515359 -0.28700665 0.42859095 -0.07030835 0.114730425 0.0053213877
-0.1438043 -0.7780046 -0.30331028 -0.33289367 -0.1593221 -0.13953696 -0.17329629 -0.49421057
-0.3071238 -0.015699115 -0.20901574 -0.9405542 -0.16366285 -0.11623364 -0.27219984 -0.12054934
-0.055911794 0.24731909 -0.18040197 -0.33519715 -0.32467186 0.11371521 -0.67420423 0.21842405
-0.361998 0.24409127 -0.014279681 0.027305743 -0.50460935 -0.027676016 0.0056070676 0.1552076
0.09527263 -0.3522129 0.082155414 -0.64793295 0.19110279 0.13474983 0.055786483 -0.3642063
-0.4859294 0.30782023 0.1764234 -0.02127098 -0.22520478 -0.23985583 -0.17182279 -0.48147726
-0.34739798 -0.15771696 0.08127693 0.045440514 0.20876384 -0.011255677 0.19549023 0.19657388
0.12227279 -0.43414694 -0.030283086 0.04413622 -0.70568496 -0.602612 -0.6550963 -0.41655755
-0.054040078 0.18901786 0.06318349 -0.31009695 0.123951055 0.19570164 -0.02521106 -0.011616635
0.020004015 -0.005514534 0.287198 -0.07423292 0.061762124 -0.03485747 0.14879107 0.04529304
-0.13412264 -0.31213102 -0.21731731 -0.30111176 -0.028882388 0.10091911 0.17426047 0.15271336
0.27461734 -0.5617222 0.22853252 -0.5914744 -0.44985285 -0.23571326 -0.078821994 -0.5109351
-0.22028491 0.028950987 -0.24017677 -0.045152288 -0.011325352 0.24041025 -0.09082982 -0.033826016
-0.19838667 -0.20279227 -0.090916894 -0.10304727 0.18917662 -1.2883953 -0.3691737 0.024542186
-0.02205937 0.13691309 -0.062297843 -0.15406325 -0.48738798 -0.29688662 -0.27843985 0.23062998
0.07253813 -0.08515673 0.07717634 0.08265877 0.17588806 -0.06607869 -0.6833617 -0.79156935
0.0328313 -0.088849284 -0.064806774 -0.055695713 -0.14969313 0.004886622 -0.277051 0.1062762
-0.461942 0.013572119 -0.3623324 0.13601822 -0.32609904 -0.14297119 0.033537116 -0.25085923
-0.16561984 0.098672666 -0.42253497 -0.015772104 0.16145895 -0.030133324 0.24472556 0.057523713
-0.0023401193 -0.24493068 0.0029240067 -0.74968994 0.01840868 0.052134555 -0.03852035 -0.37580255
-0.007463586 0.020909427 -0.046197504 -0.25259975 0.036783982 0.053570066 0.15225214 0.23526044
0.17195998 0.08927605 -0.023138398 0.1415086 0.047185164 0.24523553 0.123970255 0.04414213
-0.2526458 0.14766647 0.027218116 -0.008069706 -0.21946919 -0.014040588 0.06012681 -0.45410317
0.086253636 0.15094016 -0.39267102 -0.020349964 -0.21589166 -0.27115774 -0.17483838 -0.6883892
-0.08748942 -0.280143 0.021113003 -0.021757215 0.14733344 -0.24612832 0.08218924 0.21077202
-0.31648546 -0.007658535 -0.05238757 -0.6661314 0.15919836 0.16858608 0.13891555 0.16985787
-0.085752025 0.038847398 -0.2855441 -0.087770276 -0.54128754 0.4558468 0.06238395 0.09069014
-0.24880506 -0.38753211 -0.12939811 -0.05915726 0.05414978 -0.20128366 -0.17454572 0.086354576
0.1254938 -0.3263961 -0.12541091 0.09908516 -0.42814335 -0.46548328 -0.06576737 0.07888901
0.17539117 -0.105756864 -0.4488 0.13077493 0.16255565 -0.49400377 -0.088315785 0.24666548
-0.14779724 -0.45807523 -0.0466612 -0.038407657 -0.13435468 -0.023422722 -0.14022104 -0.27800667

layer3.bias f4 [10]
00000000: a47f 0fbe bb60 1dbf a94f cabe 89ed f2bd
00000010: cab2 483e 9eef 13bf 6843 783d a418 12bf
00000020: dc9e dd3f e26a 9d3e
-0.14013535 -0.61475724 -0.395139 -0.118617125 0.19599453 -0.577875 0.06061116 -0.5706885
1.7314105 0.30745608
